fall_detection_model.tflite (tflite, 60920 bytes, 4 tensors)

arith.constant3 f4 [1, 50]
-0.2716383 -0.21934977 0.22009246 -0.17025878 0.092927754 -0.028208513 0.116242275 0.23638488
0.20892583 -0.2253991 -0.37257344 -0.09062628 0.08339404 -0.38237992 -0.26350215 0.24901092
-0.18203546 -0.19112733 0.19079903 0.06810396 0.11170879 0.28476676 -0.22971667 0.28228018
-0.077066146 -0.35095575 -0.14589195 -0.038401276 -0.17922176 -0.67656696 -0.10769648 0.062452372
0.26906672 -0.3316482 -0.26686218 -0.017887264 -0.073469035 -0.22786692 -0.1690855 -0.33185863
0.18067671 -0.30630416 0.09793366 0.15867682 0.31880033 0.14632393 0.16660368 0.10488977
0.15442325 0.11175746
00000000: 2d14 8bbe 3a9d 60be eb5f 613e 5158 2ebe
00000010: e850 be3d 8a15 e7bc 6e10 ee3d e10e 723e
00000020: a7f0 553e 06cf 66be f2c1 bebe 459a b9bd
00000030: 7fca aa3d 4dc7 c3be c1e9 86be b8fc 7e3e
00000040: 8167 3abe e2b6 43be d260 433e 177a 8b3d
00000050: 94c7 e43d f3cc 913e d93a 6bbe 0787 903e
00000060: dbd4 9dbd 79b0 b3be b364 15be a84a 1dbd
00000070: e985 37be 7e33 2dbf f98f dcbd 0fce 7f3d
00000080: 1dc3 893e cbcd a9be 29a2 88be 5088 92bc
00000090: ef76 96bd f255 69be c024 2dbe 60e9 a9be
000000a0: 5103 393e e6d3 9cbe 7191 c83d 2d7c 223e
000000b0: cc39 a33e f1d5 153e 289a 2a3e 73d0 d63d
000000c0: 2121 1e3e 18e1 e43d

arith.constant17 f4 [200, 12]
0.014091069 -0.08823379 0.06388521 -0.122318774 0.09893828 -0.0006175941 0.00048425567 0.14381547
-0.124468915 0.16694215 0.15253575 -0.08885099 -0.16112085 -0.14397702 -0.15467694 0.10078057
0.01018547 0.022112207 -0.041586 0.10337201 0.058282673 -0.09576491 0.109835364 0.08840408
0.019874813 -0.042104095 -0.15139174 -0.14645854 -0.16558029 0.11501272 -0.0769631 0.0055925203
-0.17924899 -0.0050299987 -0.13031872 -0.051301923 -0.024733746 -0.0061929096 0.044140533 0.16165
0.07033665 0.07694806 -0.11969442 -0.19208841 -0.104241356 0.14802977 0.043552358 0.06897867
0.15952921 0.18119569 -0.016241357 0.046193153 -0.09877985 0.07682639 -0.11678561 0.15635678
-0.0007462665 0.021818487 0.099606425 0.07112931 0.04128449 -0.11735433 -0.03423446 0.17620698
-0.12911864 0.05624417 -0.17752926 0.016814696 0.17497633 0.20478554 0.09200847 -0.17155632
0.25287807 -0.028292758 0.15702677 -0.11717244 0.019341713 -0.077668056 0.1284912 -0.08504392
0.10820168 0.026356908 -0.0103718825 0.07559125 -0.08427002 0.05477956 -0.13879079 -0.04072081
-0.12249551 -0.11882752 -0.05204653 0.09483738 0.03665278 -0.03709836 -0.13344921 0.0971444
-0.073148005 -0.07332786 -0.12826979 0.11977698 -0.052118585 0.1920401 0.033292778 0.16496286
-0.098244876 0.07321518 -0.07238706 0.11651765 0.10542693 0.13080338 -0.06498436 -0.041358538
-0.11907368 0.079815574 0.11753871 0.10980556 0.09246773 0.08280261 0.13551702 0.14308284
0.011581186 -0.12981299 0.17871967 -0.17834003 -0.019279644 0.057694294 0.20712553 -0.09439306
0.0041495804 -0.13830878 0.1864609 -0.1731632 0.027993089 -0.049256887 -0.1559664 -0.00045660473
0.021613095 -0.13171059 -0.15604326 -0.030422935 -0.004281702 -0.06748926 0.012896854 -0.06400498
0.09428969 0.069900565 0.139101 -0.09885265 -0.109997764 -0.057879757 -0.12105852 0.1723435
-0.074892655 0.14600965 -0.10710241 0.11110843 -0.1398439 -0.15232438 0.18179813 0.07984906
0.016294798 0.0003512818 -0.12214999 -0.105188295 0.09606974 -0.13843456 -0.12008724 -0.0069646607
0.11626776 -0.10407866 -0.16213089 0.04981847 -0.16795062 0.098556265 -0.0906862 -0.020072045
-0.13601343 -0.004924264 0.0678708 0.15257172 0.030688783 -0.0009857032 0.077485375 -0.018960077
0.00253132 -0.048204433 -0.16162662 0.06118178 -0.08313878 0.074085675 0.12414622 -0.06654786
-0.1575849 0.036178526 -0.05424423 0.109246686 0.14687312 0.07110826 0.00070125645 -0.08843136
-0.030879116 0.033027284 0.051636897 0.13292995 0.062674485 -0.12242521 0.16938956 0.06416727
0.12714855 -0.10432024 0.01508057 -0.09357532 0.05094307 -0.062256463 0.12278447 0.029138522
-0.11661028 0.093698494 -0.13925284 -0.08026674 0.098042585 -0.023304898 0.033940107 -0.12805663
-0.09945822 0.011972635 -0.06282494 0.06789158 -0.22309445 -0.04333087 0.010083967 -0.10173534
0.15599693 -0.006755211 0.19279386 0.16483907 -0.07348182 -0.07819263 0.11944028 -0.03168554
0.048664734 0.06056 -0.050308514 -0.1471201 -0.15423828 0.28047323 0.090325415 -0.13310598
-0.011672121 0.052494105 0.08230513 0.17765877 0.0034759343 -0.019045621 0.007332474 0.111782834
00000000: 3ade 663c ebb3 b4bd 40d6 823d 4482 fabd
00000010: 27a0 ca3d 0ae6 21ba b2e3 fd39 5d44 133e
00000020: 8fe9 febd e2f2 2a3e 5532 1c3e 82f7 b5bd
00000030: ddfc 24be b66e 13be a263 1ebe 0b66 ce3d
00000040: f5e0 263c a924 b53c 1556 2abd b4b4 d33d
00000050: d0b9 6e3d 6520 c4bd 5df1 e03d 330d b53d
00000060: 81d0 a23c 5875 2cbd 7006 1bbe 3af9 15be
00000070: e18d 29be ca8b eb3d d49e 9dbd 7641 b73b
00000080: 0c8d 37be b0d2 a4bb 4572 05be f721 52bd
00000090: 6d9e cabc e4ed cabb b4cc 343d 9487 253e
000000a0: a90c 903d f296 9d3d 5922 f5bd d3b2 44be
000000b0: 7e7c d5bd 1e95 173e f563 323d b044 8d3d
000000c0: a05b 233e 5d8b 393e 980c 85bc 0835 3d3d
000000d0: 174d cabd 2857 9d3d 4b2d efbd fe1b 203e
000000e0: 19a1 43ba afbc b23c 74fe cb3d 3eac 913d
000000f0: ed19 293d 7857 f0bd 6f39 0cbd 9a6f 343e
00000100: ad37 04be 4960 663d 3bca 35be f9be 893c
00000110: ff2c 333e 4db3 513e f06e bc3d 76ac 2fbe
00000120: 3c79 813e 37c6 e7bc a0cb 203e 1bf8 efbd
00000130: 8372 9e3c 6e10 9fbd 3293 033e 822b aebd
00000140: d898 dd3d 71ea d73c d4ee 29bc 96cf 9a3d
00000150: c395 acbd 8860 603d 2c1f 0ebe ddca 26bd
00000160: edde fabd d85b f3bd be2e 55bd 1a3a c23d
00000170: 3a21 163d 73f4 17bd e9a6 08be a5f3 c63d
00000180: 9fce 95bd eb2c 96bd 2859 03be a24d f53d
00000190: 4c7a 55bd 29a6 443e 025e 083d 06ec 283e
000001a0: 9c34 c9bd d7f1 953d ab3f 94bd cea0 ee3d
000001b0: 13ea d73d 52f1 053e 8516 85bd 9267 29bd
000001c0: e7dc f3bd 5976 a33d 23b8 f03d bde1 e03d
000001d0: b95f bd3d 6a94 a93d f9c4 0a3e 4f84 123e
000001e0: 04bf 3d3c b2ed 04be 4a02 373e c59e 36be
000001f0: 58f0 9dbc da50 6c3d b718 543e 2651 c1bd
00000200: 34f9 873b d1a0 0dbe 9bef 3e3e b251 31be
00000210: c351 e53c 97c1 49bd a8b5 1fbe 7364 efb9
00000220: f20d b13c 24df 06be cec9 1fbe 8539 f9bc
00000230: 854d 8cbb cf37 8abd 544d 533c 0b15 83bd
00000240: f41a c13d 0728 8f3d 7e70 0e3e 4273 cabd
00000250: 8246 e1bd 5313 6dbd 88ed f7bd d17a 303e
00000260: 5261 99bd 8e83 153e 8258 dbbd d18c e33d
00000270: 3d33 0fbe ecfa 1bbe 4a29 3a3e e787 a33d
00000280: ab7c 853c 3f2c b839 c629 fabd f66c d7bd
00000290: 36c0 c43d cac1 0dbe 4df0 f5bd cf37 e4bb
000002a0: cb1d ee3d 3127 d5bd a405 26be 740e 4c3d
000002b0: 3ffb 2bbe ded7 c93d b0b9 b9bd 216e a4bc
000002c0: 1b47 0bbe b85b a1bb d9ff 8a3d c33b 1c3e
000002d0: 0b67 fb3c b632 81ba a7b0 9e3d 2a52 9bbc
000002e0: 81e4 253b 0372 45bd 7381 25be bf99 7a3d
000002f0: aa44 aabd 3bba 973d 6040 fe3d 3f4a 88bd
00000300: f05d 21be ef2f 143d 332f 5ebd babc df3d
00000310: e865 163e 35a1 913d 86d4 373a 801b b5bd
00000320: 33f6 fcbc 9e47 073d 3681 533d ca1e 083e
00000330: 7b5b 803d 12ba fabd 7574 2d3e 216a 833d
00000340: 3b33 023e daa5 d5bd 7f14 773c 6ba4 bfbd
00000350: aea9 503d a200 7fbd 6d76 fb3d e9b3 ee3c
00000360: 5fd1 eebd ffe4 bf3d 4c98 0ebe e362 a4bd
00000370: 8dca c83d eae9 bebc c804 0b3d 4721 03be
00000380: c0b0 cbbd df28 443c 5daa 80bd be0a 8b3d
00000390: df72 64be b67b 31bd 3937 253c 9e5a d0bd
000003a0: a9bd 1f3e d15a ddbb c16b 453e 93cb 283e
000003b0: a37d 96bd 7523 a0bd 1b9d f43d b2c8 01bd
000003c0: ac54 473d c30d 783d 4d10 4ebd a7a6 16be
000003d0: a4f0 1dbe 309a 8f3e 88fc b83d ef4c 08be
000003e0: 6c3c 3fbc 0f04 573d 988f a83d 2eec 353e
000003f0: 80cc 633b 9005 9cbc 4045 f03b 66ee e43d

arith.constant18 f4 [200, 50]
-0.2126815 -0.21499285 0.24632178 -0.14337692 0.31707746 -0.2562813 0.6937698 0.21957213
0.24254398 -0.05331998 -0.16401632 0.053868614 0.48436993 -0.22300568 -0.08849817 0.35600966
-0.12100594 -0.21802834 0.42117536 0.5122492 0.54021156 -0.031520724 -0.09251603 -0.0479411
-0.16677277 -0.33375272 0.10942242 0.09364185 -0.0878659 -0.04301975 -0.1721912 0.565616
0.57706016 0.015982524 0.093064174 -0.20689516 -0.08124398 -0.31425604 -0.09542268 0.02516353
0.19959238 -0.06094512 0.3287774 0.37985745 0.20644575 0.567791 0.26433262 0.012118186
0.18685448 0.08410354 -0.21473888 -0.11276584 0.020404402 -0.25585693 -0.013560977 -0.070665084
0.07355118 -0.010829297 0.08020487 0.137803 -0.19216193 -0.039486952 0.092963524 -0.023251442
-0.0078113866 0.030723043 -0.08208362 -0.11431961 -0.023565322 0.045601305 -0.19081545 -0.10323337
-0.08022471 -0.011227332 0.12577042 -0.023709089 0.047528088 -0.08431159 -0.106156 0.012047968
-0.031931743 0.038401388 0.010254396 -0.009038525 0.06513852 -0.03592568 0.007404298 -0.13082525
-0.24102296 -0.1762257 0.05288509 -0.08851581 0.09609615 0.06692771 -0.058333207 -0.011480418
-0.08990462 0.067535385 0.0056676404 -0.055092037 0.02812344 -0.075324535 -0.015676534 0.066674046
-0.0028526124 0.07294251 -0.056975573 -0.08935184 -0.004745548 0.087108806 -0.001529543 -0.010214586
0.09773272 0.15500493 0.08014878 -0.095928356 0.0509407 -0.1139079 -0.13370983 -0.12401341
-0.07101123 -0.07491881 -0.08753949 0.027450088 -0.09465008 -0.084218636 0.033068564 -0.045669015
-0.05648147 -0.10661017 -0.001978006 -0.09317701 -0.09664381 0.047094367 -0.010139627 0.013034296
-0.031716112 -0.19900677 0.10440698 0.07085515 -0.041914456 -0.087045215 -0.11533091 -0.014838147
0.04567147 -0.12038067 0.043849036 0.049674213 -0.10406787 -0.044123594 -0.04517287 -0.045077868
0.08027879 -0.012564095 0.027957404 -0.056135073 0.042785026 -0.072333395 0.10269121 -0.02680391
0.0103654545 0.06031551 0.20234567 0.06338031 -0.035788376 0.10250598 -0.06437705 -0.006149437
-0.07486651 0.014669836 0.05706523 0.10852794 0.059741497 0.08185237 -0.08182194 0.06729617
-0.05094575 -0.11076912 0.12150545 0.064966924 -0.009699582 0.088317975 -0.017403934 -0.11379369
0.065474376 0.025270285 0.04985217 0.0582687 -0.15766232 -0.122529134 -0.06579987 0.107384875
-0.06791901 0.045757413 -0.10910324 0.04231463 -0.06773699 0.05490898 -0.016128855 -0.111217715
0.041828264 -0.068545036 0.062060714 -0.14360973 0.021684388 -0.090933695 -0.014624182 -0.043540876
0.10190935 -0.009433371 0.024303077 0.009489427 -0.07331026 -0.017885845 -0.04423534 0.09568164
-0.117902085 -0.05560085 -0.1449627 0.07409306 -0.090461954 0.07949817 0.07750994 0.024930948
-0.17123803 -0.06679279 0.077929676 -0.07877078 0.019540207 -0.14107437 0.00597727 0.105310515
0.10709468 0.03831107 -0.08384096 0.002555029 -0.086539134 -0.018241452 -0.05513797 -0.0015245101
0.01890513 0.015775193 0.1650858 0.13462016 -0.012434921 0.105769455 -0.033234876 0.062370393
-0.031459983 0.07133305 0.07724031 -0.11998294 0.16687089 -0.08860749 0.10688816 -0.14141728
00000000: 2ec9 59be 1627 5cbe c73b 7c3e 66d1 12be
00000010: fa57 a23e 4d37 83be e69a 313f 84d7 603e
00000020: 735d 783e 0d66 5abd e5f3 27be 56a5 5c3d
00000030: 56ff f73e 9a5b 64be 873e b5bd e646 b63e
00000040: f6d1 f7bd d242 5fbe 4ca4 d73e c322 033f
00000050: 4e4b 0a3f e01b 01bd 0b79 bdbd e35d 44bd
00000060: 7bc6 2abe a3e1 aabe dd18 e03d 4cc7 bf3d
00000070: 09f3 b3bd 7a35 30bd e452 30be 36cc 103f
00000080: 37ba 133f c8ed 823c 6e98 be3d 53dc 53be
00000090: 3e63 a6bd 2be6 a0be f76c c3bd bf23 ce3c
000000a0: f261 4c3e 97a1 79bd 8355 a83e ad7c c23e
000000b0: 8466 533e c05a 113f 9b56 873e 5b8b 463c
000000c0: c856 3f3e 7a3e ac3d 82e4 5bbe c7f1 e6bd
000000d0: 2227 a73c aeff 82be dc2e 5ebc dbb8 90bd
000000e0: 00a2 963d 5d6d 31bc 7342 a43d 3b1c 0d3e
000000f0: 19c6 44be 12bd 21bd a963 be3d cf79 bebc
00000100: a9f6 ffbb e4ae fb3c 751b a8bd 6620 eabd
00000110: 100c c1bc 6fc8 3a3d 2065 43be 046c d3bd
00000120: da4c a4bd d8f2 37bc f6c9 003e 9039 c2bc
00000130: d0ac 423d 8eab acbd 5168 d9bd d764 453c
00000140: dcca 02bd c64a 1d3d 0e02 283c 5216 14bc
00000150: 5867 853d ce26 13bd c19f f23b 0ef7 05be
00000160: b9ce 76be 8374 34be 099e 583d c747 b5bd
00000170: 0fce c43d 6511 893d cdee 6ebd 5d18 3cbc
00000180: ea1f b8bd fe4f 8a3d 9db7 b93b 30a8 61bd
00000190: 2163 e63c c043 9abd 136c 80bc 678c 883d
000001a0: e5f2 3abb e262 953d 385f 69bd 19fe b6bd
000001b0: 8b80 9bbb 1a66 b23d f27a c8ba 145b 27bc
000001c0: 1828 c83d 9db9 1e3e 0b25 a43d 1676 c4bd
000001d0: 32a7 503d 8c48 e9bd 3beb 08be befa fdbd
000001e0: 566e 91bd 086f 99bd e747 b3bd 02df e03c
000001f0: e7d7 c1bd d27a acbd e772 073d 6f0f 3bbd
00000200: 1d59 67bd 6f56 dabd 6fa1 01bb 97d3 bebd
00000210: 31ed c5bd 06e6 403d ae20 26bc cd8d 553c
00000220: c1e8 01bd 6ec8 4bbe 54d3 d53d 811c 913d
00000230: 7eae 2bbd c344 b2bd 9d32 ecbd b31b 73bc
00000240: 0212 3b3d 248a f6bd 0c9b 333d 3077 4b3d
00000250: 8921 d5bd f1ba 34bd 3007 39bd 92a3 38bd
00000260: 3569 a43d a2d9 4dbc ed06 e53c e4ed 65bd
00000270: 5a3f 2f3d 8823 94bd c54f d23d e093 dbbc
00000280: ded3 293c 650d 773d b433 4f3e 89cd 813d
00000290: d596 12bd a8ee d13d 1dd8 83bd 3781 c9bb
000002a0: 9d53 99bd c059 703c 3bbd 693d e643 de3d
000002b0: 80b3 743d 37a2 a73d 4392 a7bd 93d2 893d
000002c0: 7eac 50bd ecda e2bd d9d7 f83d 610d 853d
000002d0: ffea 1ebc 0ee0 b43d b292 8ebc ab0c e9bd
000002e0: 6e17 863d a103 cf3c ca31 4c3d 29ab 6e3d
000002f0: 3b72 21be 8ef0 fabd 15c2 86bd 9aec db3d
00000300: 1f19 8bbd 206c 3b3d 8571 dfbd 1b52 2d3d
00000310: b1b9 8abd 3de8 603d a920 84bc 1dc6 e3bd
00000320: 1d54 2b3d 5761 8cbd 6033 7e3d 6e0e 13be
00000330: 75a3 b13c 723b babd 449a 6fbc eb57 32bd
00000340: d9b5 d03d 6d8e 1abc 3f17 c73c 8b79 1b3c
00000350: b123 96bd 5685 92bc 1e30 35bd bcf4 c33d
00000360: a676 f1bd b8bd 63bd 1a71 14be 1abe 973d
00000370: 1e44 b9bd f0cf a23d 88bd 9e3d fd3b cc3c
00000380: 0659 2fbe a9ca 88bd 9899 9f3d 9352 a1bd
00000390: c912 a03c cd75 10be fadc c33b 0aad d73d
000003a0: 7554 db3d 12ec 1c3d cfb4 abbd 4672 273b
000003b0: 6e3b b1bd 196f 95bc 5ad8 61bd 12d2 c7ba
000003c0: eede 9a3c fa3a 813c 410c 293e ded9 093e
000003d0: d7bb 4bbc a89d d83d 4b21 08bd 1978 7f3d
000003e0: 2fdc 00bd 1017 923d 2b30 9e3d 9eb9 f5bd
000003f0: 34e0 2a3e d877 b5bd 2ee8 da3d b1cf 10be

sequential_1/lstm_1/while/lstm_cell_1/add_1/ReadVariableOp f4 [200]
0.065225385 -0.035438247 0.0056173624 -0.01639096 0.056297176 0.069326386 0.04084818 -0.03169096
0.0039168904 -0.008898126 0.025432933 -0.019363714 0.025090404 0.035464495 -0.007064486 -0.010592689
-0.012051531 0.045048136 -0.025606664 0.0040319134 0.03225934 0.0 -0.022738583 0.0
-0.009748013 0.049141154 -0.0077907466 0.0 -0.014531322 0.3185075 -0.029863853 0.009369388
0.007340998 -0.00046590692 -0.016348304 0.044432517 -0.014112553 -0.0032362842 -0.018062912 -0.009650603
0.0009491076 0.05458615 -0.00071122 0.008607133 0.016987806 -0.009776799 0.0089287255 -0.008141318
0.014452834 -0.024460983 0.99024546 0.9989499 0.9887013 0.9894574 1.0071071 1.0897106
1.0195646 0.97709936 1.001496 0.9899751 0.9801637 0.9785729 1.0161581 0.96123207
0.99372256 0.9833526 0.9876695 1.0043826 0.97795784 0.99106485 0.95208335 1.0
0.9787589 1.0 0.99163955 0.95720536 0.9925726 1.0 0.9981937 0.80226517
0.97357553 1.0057236 0.9637254 0.99031925 0.98383546 1.0277143 0.9882949 0.9915566
0.9847701 0.9901449 0.9964525 0.95245844 0.98736787 0.9999893 0.99292284 0.9704399
1.0128567 0.9897326 0.9951921 0.97583556 0.03907449 0.07811734 0.029702233 0.01322467
0.004588713 0.054042332 0.029680733 0.03130543 0.016788032 -0.010790221 0.018982528 -0.032099433
0.031376135 0.022053309 -0.022258207 0.024928086 0.0031359694 0.052861545 0.01649257 0.021099396
0.034036767 0.0 0.0050713173 0.0 -0.011834607 0.045304034 -0.0076624104 0.0
0.0202404 0.019642614 0.07756645 0.014623887 0.05837679 -0.008404479 -0.020021798 0.032342285
-0.015261247 0.034636993 0.040594526 -0.0132011045 0.014071075 0.027940642 0.017869592 0.01602886
0.02312064 0.024436079 0.033393953 -0.0137981605 0.007597373 -0.017741775 0.080730475 -0.0611246
-0.0024739155 -0.013996254 0.01976607 0.07944017 0.038692273 -0.047483183 0.0036334996 -0.00907994
0.0264062 -0.019077359 0.013830685 0.023066364 -0.007060485 -0.01708811 -0.009936296 0.045519672
-0.01990972 -0.0013930957 0.011752522 0.0 -0.024630494 0.0 -0.009733575 0.06623772
-0.007919044 0.0 -0.021210244 0.28977996 -0.032585002 -0.00058091944 -0.0006283966 -0.00043378532
-0.016364215 0.050733067 -0.014892267 -0.00066824275 -0.013243453 -0.009657491 -0.004709875 0.06267874
-0.01246258 -0.0066898186 0.019512739 -0.033775706 0.0057540387 -0.007762727 0.015242722 -0.02403206
00000000: e394 853d b227 11bd da11 b83b 5646 86bc
00000010: de97 663d fefa 8d3d 6c50 273d 61ce 01bd
00000020: 4259 803b 72c9 11bc ba58 d03c a7a0 9ebc
00000030: 648a cd3c 3843 113d 347d e7bb f58c 2dbc
00000040: c973 45bc 6584 383d 11c5 d1bc 241e 843b
00000050: 5f22 043d 0000 0000 4446 babc 0000 0000
00000060: 21b6 1fbc 3c48 493d 8549 ffbb 0000 0000
00000070: c814 6ebc 6a13 a33e 0aa5 f4bc 1082 193c
00000080: c18c f03b f844 f4b9 e1ec 85bc dffe 353d
00000090: 5638 67bc d717 54bb acf8 93bc 901d 1ebc
000000a0: 88cd 783a ba95 5f3d 2b71 3aba ef04 0d3c
000000b0: 032a 8b3c de2e 20bc ca49 123c 2a63 05bc
000000c0: 94cb 6c3c 6662 c8bc ba80 7d3f 2ebb 7f3f
000000d0: 871b 7d3f 154d 7d3f e3e8 803f a37b 8b3f
000000e0: 1881 823f 2f23 7a3f 0531 803f 026f 7d3f
000000f0: 02ec 7a3f c183 7a3f 7811 823f 4e13 763f
00000100: 9a64 7e3f ffbc 7b3f e9d7 7c3f 9c8f 803f
00000110: 725b 7a3f 6db6 7d3f bcbb 733f 0000 803f
00000120: f18f 7a3f 0000 803f 17dc 7d3f 690b 753f
00000130: 3d19 7e3f 0000 803f 9f89 7f3f 4061 4d3f
00000140: 3f3c 793f 8dbb 803f b5b6 763f 9085 7d3f
00000150: a4dc 7b3f 248c 833f e500 7d3f a7d6 7d3f
00000160: e519 7c3f 237a 7d3f 8317 7f3f 51d4 733f
00000170: 24c4 7c3f 4cff 7f3f 3130 7e3f c06e 783f
00000180: 4aa5 813f 1e5f 7d3f e9c4 7e3f 5cd0 793f
00000190: 930c 203d fcfb 9f3d 1952 f33c 49ac 583c
000001a0: ea5c 963b 7e5b 5d3d 0225 f33c 1f3a 003d
000001b0: 0e87 893c 78c9 30bc 3f81 9b3c b27a 03bd
000001c0: 4384 003d 24a9 b43c d856 b6bc fc35 cc3c
000001d0: d684 4d3b 5985 583d 6d1b 873c a4d8 ac3c
000001e0: 236a 0b3d 0000 0000 4b2d a63b 0000 0000
000001f0: f1e5 41bc b990 393d f514 fbbb 0000 0000
00000200: 32cf a53c 8ce9 a03c 29db 9e3d 0799 6f3c
00000210: 801c 6f3d f1b2 09bc c104 a4bc 5879 043d
00000220: 4f0a 7abc 85df 0d3d 7246 263d 7249 58bc
00000230: 5e8a 663c c6e3 e43c 4063 923c f54e 833c
00000240: 7f67 bd3c 2c2e c83c 19c8 083d ae11 62bc
00000250: 62f3 f83b 3357 91bc 0556 a53d ca5d 7abd
00000260: 6a21 22bb 8b50 65bc 74ec a13c 87b1 a23d
00000270: ca7b 1e3d ba7d 42bd 0220 6e3b 07c4 14bc
00000280: d151 d83c 1f48 9cbc 199a 623c acf5 bc3c
00000290: a45b e7bb 5dfc 8bbc d9cb 22bc d672 3a3d
000002a0: b619 a3bc 8998 b6ba a68d 403c 0000 0000
000002b0: e4c5 c9bc 0000 0000 9379 1fbc a4a7 873d
000002c0: e1be 01bc 0000 0000 1bc1 adbc 0a5e 943e
000002d0: da77 05bd d848 18ba fbba 24ba ae6d e3b9
000002e0: 3f0e 86bc 7acd 4f3d b2fe 73bc 032d 2fba
000002f0: 11fb 58bc 743a 1ebc 4c55 9abb b65d 803d
00000300: d92f 4cbc 4436 dbbb 2ed9 9f3c 6558 0abd
00000310: 608c bc3b 795e febb 9cbc 793c e2de c4bc
